node {
  name: "rnet/input"
  op: "Placeholder"
  attr {
    key: "dtype"
    value {
      type: DT_FLOAT
    }
  }
  attr {
    key: "shape"
    value {
      shape {
        dim {
          size: -1
        }
        dim {
          size: 24
        }
        dim {
          size: 24
        }
        dim {
          size: 3
        }
      }
    }
  }
}
node {
  name: "rnet/conv1/weights"
  op: "Const"
  attr {
    key: "dtype"
    value {
      type: DT_FLOAT
    }
  }
  attr {
    key: "value"
    value {
      tensor {
        dtype: DT_FLOAT
        tensor_shape {
          dim {
            size: 3
          }
          dim {
            size: 3
          }
          dim {
            size: 3
          }
          dim {
            size: 28
          }
        }
        tensor_content: "…"
      }
    }
  }
}
node {
  name: "rnet/conv1/weights/read"
  op: "Identity"
  input: "rnet/conv1/weights"
  attr {
    key: "T"
    value {
      type: DT_FLOAT
    }
  }
  attr {
    key: "_class"
    value {
      list {
        s: "loc:@rnet/conv1/weights"
      }
    }
  }
}
node {
  name: "rnet/conv1/Conv2D"
  op: "Conv2D"
  input: "rnet/input"
  input: "rnet/conv1/weights/read"
  attr {
    key: "T"
    value {
      type: DT_FLOAT
    }
  }
  attr {
    key: "data_format"
    value {
      s: "NHWC"
    }
  }
  attr {
    key: "dilations"
    value {
      list {
        i: 1
        i: 1
        i: 1
        i: 1
      }
    }
  }
  attr {
    key: "padding"
    value {
      s: "VALID"
    }
  }
  attr {
    key: "strides"
    value {
      list {
        i: 1
        i: 1
        i: 1
        i: 1
      }
    }
  }
  attr {
    key: "use_cudnn_on_gpu"
    value {
      b: true
    }
  }
}
node {
  name: "rnet/conv1/biases"
  op: "Const"
  attr {
    key: "dtype"
    value {
      type: DT_FLOAT
    }
  }
  attr {
    key: "value"
    value {
      tensor {
        dtype: DT_FLOAT
        tensor_shape {
          dim {
            size: 28
          }
        }
        tensor_content: "…"
      }
    }
  }
}
node {
  name: "rnet/conv1/biases/read"
  op: "Identity"
  input: "rnet/conv1/biases"
  attr {
    key: "T"
    value {
      type: DT_FLOAT
    }
  }
  attr {
    key: "_class"
    value {
      list {
        s: "loc:@rnet/conv1/biases"
      }
    }
  }
}
node {
  name: "rnet/conv1/BiasAdd"
  op: "BiasAdd"
  input: "rnet/conv1/Conv2D"
  input: "rnet/conv1/biases/read"
  attr {
    key: "T"
    value {
      type: DT_FLOAT
    }
  }
  attr {
    key: "data_format"
    value {
      s: "NHWC"
    }
  }
}
node {
  name: "rnet/prelu1/alpha"
  op: "Const"
  attr {
    key: "dtype"
    value {
      type: DT_FLOAT
    }
  }
  attr {
    key: "value"
    value {
      tensor {
        dtype: DT_FLOAT
        tensor_shape {
          dim {
            size: 28
          }
        }
        tensor_content: "…"
      }
    }
  }
}
node {
  name: "rnet/prelu1/alpha/read"
  op: "Identity"
  input: "rnet/prelu1/alpha"
  attr {
    key: "T"
    value {
      type: DT_FLOAT
    }
  }
  attr {
    key: "_class"
    value {
      list {
        s: "loc:@rnet/prelu1/alpha"
      }
    }
  }
}
node {
  name: "rnet/prelu1/Relu"
  op: "Relu"
  input: "rnet/conv1/BiasAdd"
  attr {
    key: "T"
    value {
      type: DT_FLOAT
    }
  }
}
node {
  name: "rnet/prelu1/Neg"
  op: "Neg"
  input: "rnet/conv1/BiasAdd"
  attr {
    key: "T"
    value {
      type: DT_FLOAT
    }
  }
}
node {
  name: "rnet/prelu1/Relu_1"
  op: "Relu"
  input: "rnet/prelu1/Neg"
  attr {
    key: "T"
    value {
      type: DT_FLOAT
    }
  }
}
node {
  name: "rnet/prelu1/Neg_1"
  op: "Neg"
  input: "rnet/prelu1/Relu_1"
  attr {
    key: "T"
    value {
      type: DT_FLOAT
    }
  }
}
node {
  name: "rnet/prelu1/Mul"
  op: "Mul"
  input: "rnet/prelu1/alpha/read"
  input: "rnet/prelu1/Neg_1"
  attr {
    key: "T"
    value {
      type: DT_FLOAT
    }
  }
}
node {
  name: "rnet/prelu1/add"
  op: "Add"
  input: "rnet/prelu1/Relu"
  input: "rnet/prelu1/Mul"
  attr {
    key: "T"
    value {
      type: DT_FLOAT
    }
  }
}
node {
  name: "rnet/pool1"
  op: "MaxPool"
  input: "rnet/prelu1/add"
  attr {
    key: "T"
    value {
      type: DT_FLOAT
    }
  }
  attr {
    key: "data_format"
    value {
      s: "NHWC"
    }
  }
  attr {
    key: "ksize"
    value {
      list {
        i: 1
        i: 3
        i: 3
        i: 1
      }
    }
  }
  attr {
    key: "padding"
    value {
      s: "SAME"
    }
  }
  attr {
    key: "strides"
    value {
      list {
        i: 1
        i: 2
        i: 2
        i: 1
      }
    }
  }
}
node {
  name: "rnet/conv2/weights"
  op: "Const"
  attr {
    key: "dtype"
    value {
      type: DT_FLOAT
    }
  }
  attr {
    key: "value"
    value {
      tensor {
        dtype: DT_FLOAT
        tensor_shape {
          dim {
            size: 3
          }
          dim {
            size: 3
          }
          dim {
            size: 28
          }
          dim {
            size: 48
          }
        }
        tensor_content: "…"
      }
    }
  }
}
node {
  name: "rnet/conv2/weights/read"
  op: "Identity"
  input: "rnet/conv2/weights"
  attr {
    key: "T"
    value {
      type: DT_FLOAT
    }
  }
  attr {
    key: "_class"
    value {
      list {
        s: "loc:@rnet/conv2/weights"
      }
    }
  }
}
node {
  name: "rnet/conv2/Conv2D"
  op: "Conv2D"
  input: "rnet/pool1"
  input: "rnet/conv2/weights/read"
  attr {
    key: "T"
    value {
      type: DT_FLOAT
    }
  }
  attr {
    key: "data_format"
    value {
      s: "NHWC"
    }
  }
  attr {
    key: "dilations"
    value {
      list {
        i: 1
        i: 1
        i: 1
        i: 1
      }
    }
  }
  attr {
    key: "padding"
    value {
      s: "VALID"
    }
  }
  attr {
    key: "strides"
    value {
      list {
        i: 1
        i: 1
        i: 1
        i: 1
      }
    }
  }
  attr {
    key: "use_cudnn_on_gpu"
    value {
      b: true
    }
  }
}
node {
  name: "rnet/conv2/biases"
  op: "Const"
  attr {
    key: "dtype"
    value {
      type: DT_FLOAT
    }
  }
  attr {
    key: "value"
    value {
      tensor {
        dtype: DT_FLOAT
        tensor_shape {
          dim {
            size: 48
          }
        }
        tensor_content: "…"
      }
    }
  }
}
node {
  name: "rnet/conv2/biases/read"
  op: "Identity"
  input: "rnet/conv2/biases"
  attr {
    key: "T"
    value {
      type: DT_FLOAT
    }
  }
  attr {
    key: "_class"
    value {
      list {
        s: "loc:@rnet/conv2/biases"
      }
    }
  }
}
node {
  name: "rnet/conv2/BiasAdd"
  op: "BiasAdd"
  input: "rnet/conv2/Conv2D"
  input: "rnet/conv2/biases/read"
  attr {
    key: "T"
    value {
      type: DT_FLOAT
    }
  }
  attr {
    key: "data_format"
    value {
      s: "NHWC"
    }
  }
}
node {
  name: "rnet/prelu2/alpha"
  op: "Const"
  attr {
    key: "dtype"
    value {
      type: DT_FLOAT
    }
  }
  attr {
    key: "value"
    value {
      tensor {
        dtype: DT_FLOAT
        tensor_shape {
          dim {
            size: 48
          }
        }
        tensor_content: "…"
      }
    }
  }
}
node {
  name: "rnet/prelu2/alpha/read"
  op: "Identity"
  input: "rnet/prelu2/alpha"
  attr {
    key: "T"
    value {
      type: DT_FLOAT
    }
  }
  attr {
    key: "_class"
    value {
      list {
        s: "loc:@rnet/prelu2/alpha"
      }
    }
  }
}
node {
  name: "rnet/prelu2/Relu"
  op: "Relu"
  input: "rnet/conv2/BiasAdd"
  attr {
    key: "T"
    value {
      type: DT_FLOAT
    }
  }
}
node {
  name: "rnet/prelu2/Neg"
  op: "Neg"
  input: "rnet/conv2/BiasAdd"
  attr {
    key: "T"
    value {
      type: DT_FLOAT
    }
  }
}
node {
  name: "rnet/prelu2/Relu_1"
  op: "Relu"
  input: "rnet/prelu2/Neg"
  attr {
    key: "T"
    value {
      type: DT_FLOAT
    }
  }
}
node {
  name: "rnet/prelu2/Neg_1"
  op: "Neg"
  input: "rnet/prelu2/Relu_1"
  attr {
    key: "T"
    value {
      type: DT_FLOAT
    }
  }
}
node {
  name: "rnet/prelu2/Mul"
  op: "Mul"
  input: "rnet/prelu2/alpha/read"
  input: "rnet/prelu2/Neg_1"
  attr {
    key: "T"
    value {
      type: DT_FLOAT
    }
  }
}
node {
  name: "rnet/prelu2/add"
  op: "Add"
  input: "rnet/prelu2/Relu"
  input: "rnet/prelu2/Mul"
  attr {
    key: "T"
    value {
      type: DT_FLOAT
    }
  }
}
node {
  name: "rnet/pool2"
  op: "MaxPool"
  input: "rnet/prelu2/add"
  attr {
    key: "T"
    value {
      type: DT_FLOAT
    }
  }
  attr {
    key: "data_format"
    value {
      s: "NHWC"
    }
  }
  attr {
    key: "ksize"
    value {
      list {
        i: 1
        i: 3
        i: 3
        i: 1
      }
    }
  }
  attr {
    key: "padding"
    value {
      s: "VALID"
    }
  }
  attr {
    key: "strides"
    value {
      list {
        i: 1
        i: 2
        i: 2
        i: 1
      }
    }
  }
}
node {
  name: "rnet/conv3/weights"
  op: "Const"
  attr {
    key: "dtype"
    value {
      type: DT_FLOAT
    }
  }
  attr {
    key: "value"
    value {
      tensor {
        dtype: DT_FLOAT
        tensor_shape {
          dim {
            size: 2
          }
          dim {
            size: 2
          }
          dim {
            size: 48
          }
          dim {
            size: 64
          }
        }
        tensor_content: "…"
      }
    }
  }
}
node {
  name: "rnet/conv3/weights/read"
  op: "Identity"
  input: "rnet/conv3/weights"
  attr {
    key: "T"
    value {
      type: DT_FLOAT
    }
  }
  attr {
    key: "_class"
    value {
      list {
        s: "loc:@rnet/conv3/weights"
      }
    }
  }
}
node {
  name: "rnet/conv3/Conv2D"
  op: "Conv2D"
  input: "rnet/pool2"
  input: "rnet/conv3/weights/read"
  attr {
    key: "T"
    value {
      type: DT_FLOAT
    }
  }
  attr {
    key: "data_format"
    value {
      s: "NHWC"
    }
  }
  attr {
    key: "dilations"
    value {
      list {
        i: 1
        i: 1
        i: 1
        i: 1
      }
    }
  }
  attr {
    key: "padding"
    value {
      s: "VALID"
    }
  }
  attr {
    key: "strides"
    value {
      list {
        i: 1
        i: 1
        i: 1
        i: 1
      }
    }
  }
  attr {
    key: "use_cudnn_on_gpu"
    value {
      b: true
    }
  }
}
node {
  name: "rnet/conv3/biases"
  op: "Const"
  attr {
    key: "dtype"
    value {
      type: DT_FLOAT
    }
  }
  attr {
    key: "value"
    value {
      tensor {
        dtype: DT_FLOAT
        tensor_shape {
          dim {
            size: 64
          }
        }
        tensor_content: "…"
      }
    }
  }
}
node {
  name: "rnet/conv3/biases/read"
  op: "Identity"
  input: "rnet/conv3/biases"
  attr {
    key: "T"
    value {
      type: DT_FLOAT
    }
  }
  attr {
    key: "_class"
    value {
      list {
        s: "loc:@rnet/conv3/biases"
      }
    }
  }
}
node {
  name: "rnet/conv3/BiasAdd"
  op: "BiasAdd"
  input: "rnet/conv3/Conv2D"
  input: "rnet/conv3/biases/read"
  attr {
    key: "T"
    value {
      type: DT_FLOAT
    }
  }
  attr {
    key: "data_format"
    value {
      s: "NHWC"
    }
  }
}
node {
  name: "rnet/prelu3/alpha"
  op: "Const"
  attr {
    key: "dtype"
    value {
      type: DT_FLOAT
    }
  }
  attr {
    key: "value"
    value {
      tensor {
        dtype: DT_FLOAT
        tensor_shape {
          dim {
            size: 64
          }
        }
        tensor_content: "…"
      }
    }
  }
}
node {
  name: "rnet/prelu3/alpha/read"
  op: "Identity"
  input: "rnet/prelu3/alpha"
  attr {
    key: "T"
    value {
      type: DT_FLOAT
    }
  }
  attr {
    key: "_class"
    value {
      list {
        s: "loc:@rnet/prelu3/alpha"
      }
    }
  }
}
node {
  name: "rnet/prelu3/Relu"
  op: "Relu"
  input: "rnet/conv3/BiasAdd"
  attr {
    key: "T"
    value {
      type: DT_FLOAT
    }
  }
}
node {
  name: "rnet/prelu3/Neg"
  op: "Neg"
  input: "rnet/conv3/BiasAdd"
  attr {
    key: "T"
    value {
      type: DT_FLOAT
    }
  }
}
node {
  name: "rnet/prelu3/Relu_1"
  op: "Relu"
  input: "rnet/prelu3/Neg"
  attr {
    key: "T"
    value {
      type: DT_FLOAT
    }
  }
}
node {
  name: "rnet/prelu3/Neg_1"
  op: "Neg"
  input: "rnet/prelu3/Relu_1"
  attr {
    key: "T"
    value {
      type: DT_FLOAT
    }
  }
}
node {
  name: "rnet/prelu3/Mul"
  op: "Mul"
  input: "rnet/prelu3/alpha/read"
  input: "rnet/prelu3/Neg_1"
  attr {
    key: "T"
    value {
      type: DT_FLOAT
    }
  }
}
node {
  name: "rnet/prelu3/add"
  op: "Add"
  input: "rnet/prelu3/Relu"
  input: "rnet/prelu3/Mul"
  attr {
    key: "T"
    value {
      type: DT_FLOAT
    }
  }
}
node {
  name: "rnet/conv4/Reshape/shape"
  op: "Const"
  attr {
    key: "dtype"
    value {
      type: DT_INT32
    }
  }
  attr {
    key: "value"
    value {
      tensor {
        dtype: DT_INT32
        tensor_shape {
          dim {
            size: 2
          }
        }
        tensor_content: "\377\377\377\377@\002\000\000"
      }
    }
  }
}
node {
  name: "rnet/conv4/Reshape"
  op: "Reshape"
  input: "rnet/prelu3/add"
  input: "rnet/conv4/Reshape/shape"
  attr {
    key: "T"
    value {
      type: DT_FLOAT
    }
  }
  attr {
    key: "Tshape"
    value {
      type: DT_INT32
    }
  }
}
node {
  name: "rnet/conv4/weights"
  op: "Const"
  attr {
    key: "dtype"
    value {
      type: DT_FLOAT
    }
  }
  attr {
    key: "value"
    value {
      tensor {
        dtype: DT_FLOAT
        tensor_shape {
          dim {
            size: 576
          }
          dim {
            size: 128
          }
        }
        tensor_content: "…"
      }
    }
  }
}
node {
  name: "rnet/conv4/weights/read"
  op: "Identity"
  input: "rnet/conv4/weights"
  attr {
    key: "T"
    value {
      type: DT_FLOAT
    }
  }
  attr {
    key: "_class"
    value {
      list {
        s: "loc:@rnet/conv4/weights"
      }
    }
  }
}
node {
  name: "rnet/conv4/biases"
  op: "Const"
  attr {
    key: "dtype"
    value {
      type: DT_FLOAT
    }
  }
  attr {
    key: "value"
    value {
      tensor {
        dtype: DT_FLOAT
        tensor_shape {
          dim {
            size: 128
          }
        }
        tensor_content: "…"
      }
    }
  }
}
node {
  name: "rnet/conv4/biases/read"
  op: "Identity"
  input: "rnet/conv4/biases"
  attr {
    key: "T"
    value {
      type: DT_FLOAT
    }
  }
  attr {
    key: "_class"
    value {
      list {
        s: "loc:@rnet/conv4/biases"
      }
    }
  }
}
node {
  name: "rnet/conv4/conv4/MatMul"
  op: "MatMul"
  input: "rnet/conv4/Reshape"
  input: "rnet/conv4/weights/read"
  attr {
    key: "T"
    value {
      type: DT_FLOAT
    }
  }
  attr {
    key: "transpose_a"
    value {
      b: false
    }
  }
  attr {
    key: "transpose_b"
    value {
      b: false
    }
  }
}
node {
  name: "rnet/conv4/conv4"
  op: "BiasAdd"
  input: "rnet/conv4/conv4/MatMul"
  input: "rnet/conv4/biases/read"
  attr {
    key: "T"
    value {
      type: DT_FLOAT
    }
  }
  attr {
    key: "data_format"
    value {
      s: "NHWC"
    }
  }
}
node {
  name: "rnet/prelu4/alpha"
  op: "Const"
  attr {
    key: "dtype"
    value {
      type: DT_FLOAT
    }
  }
  attr {
    key: "value"
    value {
      tensor {
        dtype: DT_FLOAT
        tensor_shape {
          dim {
            size: 128
          }
        }
        tensor_content: "…"
      }
    }
  }
}
node {
  name: "rnet/prelu4/alpha/read"
  op: "Identity"
  input: "rnet/prelu4/alpha"
  attr {
    key: "T"
    value {
      type: DT_FLOAT
    }
  }
  attr {
    key: "_class"
    value {
      list {
        s: "loc:@rnet/prelu4/alpha"
      }
    }
  }
}
node {
  name: "rnet/prelu4/Relu"
  op: "Relu"
  input: "rnet/conv4/conv4"
  attr {
    key: "T"
    value {
      type: DT_FLOAT
    }
  }
}
node {
  name: "rnet/prelu4/Neg"
  op: "Neg"
  input: "rnet/conv4/conv4"
  attr {
    key: "T"
    value {
      type: DT_FLOAT
    }
  }
}
node {
  name: "rnet/prelu4/Relu_1"
  op: "Relu"
  input: "rnet/prelu4/Neg"
  attr {
    key: "T"
    value {
      type: DT_FLOAT
    }
  }
}
node {
  name: "rnet/prelu4/Neg_1"
  op: "Neg"
  input: "rnet/prelu4/Relu_1"
  attr {
    key: "T"
    value {
      type: DT_FLOAT
    }
  }
}
node {
  name: "rnet/prelu4/Mul"
  op: "Mul"
  input: "rnet/prelu4/alpha/read"
  input: "rnet/prelu4/Neg_1"
  attr {
    key: "T"
    value {
      type: DT_FLOAT
    }
  }
}
node {
  name: "rnet/prelu4/add"
  op: "Add"
  input: "rnet/prelu4/Relu"
  input: "rnet/prelu4/Mul"
  attr {
    key: "T"
    value {
      type: DT_FLOAT
    }
  }
}
node {
  name: "rnet/conv5-1/weights"
  op: "Const"
  attr {
    key: "dtype"
    value {
      type: DT_FLOAT
    }
  }
  attr {
    key: "value"
    value {
      tensor {
        dtype: DT_FLOAT
        tensor_shape {
          dim {
            size: 128
          }
          dim {
            size: 2
          }
        }
        tensor_content: "…"
      }
    }
  }
}
node {
  name: "rnet/conv5-1/weights/read"
  op: "Identity"
  input: "rnet/conv5-1/weights"
  attr {
    key: "T"
    value {
      type: DT_FLOAT
    }
  }
  attr {
    key: "_class"
    value {
      list {
        s: "loc:@rnet/conv5-1/weights"
      }
    }
  }
}
node {
  name: "rnet/conv5-1/biases"
  op: "Const"
  attr {
    key: "dtype"
    value {
      type: DT_FLOAT
    }
  }
  attr {
    key: "value"
    value {
      tensor {
        dtype: DT_FLOAT
        tensor_shape {
          dim {
            size: 2
          }
        }
        tensor_content: "\322\205\301\275\326\205\301="
      }
    }
  }
}
node {
  name: "rnet/conv5-1/biases/read"
  op: "Identity"
  input: "rnet/conv5-1/biases"
  attr {
    key: "T"
    value {
      type: DT_FLOAT
    }
  }
  attr {
    key: "_class"
    value {
      list {
        s: "loc:@rnet/conv5-1/biases"
      }
    }
  }
}
node {
  name: "rnet/conv5-1/conv5-1/MatMul"
  op: "MatMul"
  input: "rnet/prelu4/add"
  input: "rnet/conv5-1/weights/read"
  attr {
    key: "T"
    value {
      type: DT_FLOAT
    }
  }
  attr {
    key: "transpose_a"
    value {
      b: false
    }
  }
  attr {
    key: "transpose_b"
    value {
      b: false
    }
  }
}
node {
  name: "rnet/conv5-1/conv5-1"
  op: "BiasAdd"
  input: "rnet/conv5-1/conv5-1/MatMul"
  input: "rnet/conv5-1/biases/read"
  attr {
    key: "T"
    value {
      type: DT_FLOAT
    }
  }
  attr {
    key: "data_format"
    value {
      s: "NHWC"
    }
  }
}
node {
  name: "rnet/Max/reduction_indices"
  op: "Const"
  attr {
    key: "dtype"
    value {
      type: DT_INT32
    }
  }
  attr {
    key: "value"
    value {
      tensor {
        dtype: DT_INT32
        tensor_shape {
        }
        int_val: 1
      }
    }
  }
}
node {
  name: "rnet/Max"
  op: "Max"
  input: "rnet/conv5-1/conv5-1"
  input: "rnet/Max/reduction_indices"
  attr {
    key: "T"
    value {
      type: DT_FLOAT
    }
  }
  attr {
    key: "Tidx"
    value {
      type: DT_INT32
    }
  }
  attr {
    key: "keep_dims"
    value {
      b: true
    }
  }
}
node {
  name: "rnet/sub"
  op: "Sub"
  input: "rnet/conv5-1/conv5-1"
  input: "rnet/Max"
  attr {
    key: "T"
    value {
      type: DT_FLOAT
    }
  }
}
node {
  name: "rnet/Exp"
  op: "Exp"
  input: "rnet/sub"
  attr {
    key: "T"
    value {
      type: DT_FLOAT
    }
  }
}
node {
  name: "rnet/Sum/reduction_indices"
  op: "Const"
  attr {
    key: "dtype"
    value {
      type: DT_INT32
    }
  }
  attr {
    key: "value"
    value {
      tensor {
        dtype: DT_INT32
        tensor_shape {
        }
        int_val: 1
      }
    }
  }
}
node {
  name: "rnet/Sum"
  op: "Sum"
  input: "rnet/Exp"
  input: "rnet/Sum/reduction_indices"
  attr {
    key: "T"
    value {
      type: DT_FLOAT
    }
  }
  attr {
    key: "Tidx"
    value {
      type: DT_INT32
    }
  }
  attr {
    key: "keep_dims"
    value {
      b: true
    }
  }
}
node {
  name: "rnet/prob1"
  op: "RealDiv"
  input: "rnet/Exp"
  input: "rnet/Sum"
  attr {
    key: "T"
    value {
      type: DT_FLOAT
    }
  }
}
node {
  name: "rnet/conv5-2/weights"
  op: "Const"
  attr {
    key: "dtype"
    value {
      type: DT_FLOAT
    }
  }
  attr {
    key: "value"
    value {
      tensor {
        dtype: DT_FLOAT
        tensor_shape {
          dim {
            size: 128
          }
          dim {
            size: 4
          }
        }
        tensor_content: "…"
      }
    }
  }
}
node {
  name: "rnet/conv5-2/weights/read"
  op: "Identity"
  input: "rnet/conv5-2/weights"
  attr {
    key: "T"
    value {
      type: DT_FLOAT
    }
  }
  attr {
    key: "_class"
    value {
      list {
        s: "loc:@rnet/conv5-2/weights"
      }
    }
  }
}
node {
  name: "rnet/conv5-2/biases"
  op: "Const"
  attr {
    key: "dtype"
    value {
      type: DT_FLOAT
    }
  }
  attr {
    key: "value"
    value {
      tensor {
        dtype: DT_FLOAT
        tensor_shape {
          dim {
            size: 4
          }
        }
        tensor_content: "\302t\244<}\234\336\275Y\336\013\276y\032b\275"
      }
    }
  }
}
node {
  name: "rnet/conv5-2/biases/read"
  op: "Identity"
  input: "rnet/conv5-2/biases"
  attr {
    key: "T"
    value {
      type: DT_FLOAT
    }
  }
  attr {
    key: "_class"
    value {
      list {
        s: "loc:@rnet/conv5-2/biases"
      }
    }
  }
}
node {
  name: "rnet/conv5-2/conv5-2/MatMul"
  op: "MatMul"
  input: "rnet/prelu4/add"
  input: "rnet/conv5-2/weights/read"
  attr {
    key: "T"
    value {
      type: DT_FLOAT
    }
  }
  attr {
    key: "transpose_a"
    value {
      b: false
    }
  }
  attr {
    key: "transpose_b"
    value {
      b: false
    }
  }
}
node {
  name: "rnet/conv5-2/conv5-2"
  op: "BiasAdd"
  input: "rnet/conv5-2/conv5-2/MatMul"
  input: "rnet/conv5-2/biases/read"
  attr {
    key: "T"
    value {
      type: DT_FLOAT
    }
  }
  attr {
    key: "data_format"
    value {
      s: "NHWC"
    }
  }
}
library {
}
